…
model1 = tf.keras.Sequential([
    tf.keras.layers.Conv2D(32, (3, 3), activation='relu', input_shape=(img_size, img_size, 3)),
    tf.keras.layers.MaxPooling2D((2, 2)),
    tf.keras.layers.Flatten(),
    tf.keras.layers.Dense(1024, activation='relu'),
    tf.keras.layers.Dense(num_classes, activation='softmax')
])
```


```python
print(model1.summary())
```

    Model: "sequential"
    _________________________________________________________________
     Layer (type)                Output Shape              Param #   
    =================================================================
     conv2d (Conv2D)             (None, 62, 62, 32)        896       
                                                                     
     max_pooling2d (MaxPooling2D  (None, 31, 31, 32)       0         
     )                                                               
                                                                     
     flatten (Flatten)           (None, 30752)             0         
                                                                     
     dense (Dense)               (None, 1024)              31491072  
                                                                     
     dense_1 (Dense)             (None, 200)               205000    
                                                                     
    =================================================================
    Total params: 31,696,968
    Trainable params: 31,696,968
    Non-trainable params: 0
    _________________________________________________________________
    None



```python
time_callback = TimeHistory()

# Compile the model with an optimizer, a loss function, and evaluation metrics
…
    tf.keras.layers.Conv2D(64, (3, 3), activation='relu', kernel_regularizer=regularizers.l2(0.01)),
    tf.keras.layers.MaxPooling2D((2, 2)),
    tf.keras.layers.Flatten(),
    tf.keras.layers.Dense(1024, activation='relu'),
    tf.keras.layers.Dense(num_classes, activation='softmax')
])
```


```python
print(model2.summary())
```

    Model: "sequential_1"
    _________________________________________________________________
     Layer (type)                Output Shape              Param #   
    =================================================================
     conv2d_1 (Conv2D)           (None, 62, 62, 32)        896       
                                                                     
     max_pooling2d_1 (MaxPooling  (None, 31, 31, 32)       0         
     2D)                                                             
                                                                     
     conv2d_2 (Conv2D)           (None, 29, 29, 64)        18496     
                                                                     
     max_pooling2d_2 (MaxPooling  (None, 14, 14, 64)       0         
     2D)                                                             
                                                                     
     flatten_1 (Flatten)         (None, 12544)             0         
                                                                     
     dense_2 (Dense)             (None, 1024)              12846080  
                                                                     
     dense_3 (Dense)             (None, 200)               205000    
                                                                     
    =================================================================
    Total params: 13,070,472
    Trainable params: 13,070,472
    Non-trainable params: 0
    _________________________________________________________________
    None



```python
time_callback = TimeHistory()

# Compile the model with an optimizer, a loss function, and evaluation metrics
…
model3.add(Dense(1024))
model3.add(BatchNormalization())
model3.add(Activation('relu'))

model3.add(Dense(num_classes))

model3.add(Activation('softmax'))

time_callback = TimeHistory()

model3.compile(loss=losses.categorical_crossentropy, 
optimizer=Adam(learning_rate=0.0001), metrics=['accuracy'])
```


```python
print(model3.summary())
```

    Model: "sequential_2"
    _________________________________________________________________
     Layer (type)                Output Shape              Param #   
    =================================================================
     conv2d_3 (Conv2D)           (None, 64, 64, 64)        1792      
                                                                     
     batch_normalization (BatchN  (None, 64, 64, 64)       256       
     ormalization)                                                   
                                                                     
     conv2d_4 (Conv2D)           (None, 64, 64, 64)        36928     
                                                                     
     batch_normalization_1 (Batc  (None, 64, 64, 64)       256       
     hNormalization)                                                 
                                                                     
     max_pooling2d_3 (MaxPooling  (None, 32, 32, 64)       0         
     2D)                                                             
                                                                     
     activation (Activation)     (None, 32, 32, 64)        0         
                                                                     
     conv2d_5 (Conv2D)           (None, 32, 32, 128)       73856     
                                                                     
     batch_normalization_2 (Batc  (None, 32, 32, 128)      512       
     hNormalization)                                                 
                                                                     
     conv2d_6 (Conv2D)           (None, 32, 32, 128)       147584    
                                                                     
     batch_normalization_3 (Batc  (None, 32, 32, 128)      512       
     hNormalization)                                                 
                                                                     
     max_pooling2d_4 (MaxPooling  (None, 16, 16, 128)      0         
     2D)                                                             
                                                                     
     activation_1 (Activation)   (None, 16, 16, 128)       0         
                                                                     
     conv2d_7 (Conv2D)           (None, 16, 16, 128)       147584    
                                                                     
     batch_normalization_4 (Batc  (None, 16, 16, 128)      512       
     hNormalization)                                                 
                                                                     
     conv2d_8 (Conv2D)           (None, 16, 16, 128)       147584    
                                                                     
     batch_normalization_5 (Batc  (None, 16, 16, 128)      512       
     hNormalization)                                                 
                                                                     
     activation_2 (Activation)   (None, 16, 16, 128)       0         
                                                                     
     max_pooling2d_5 (MaxPooling  (None, 8, 8, 128)        0         
     2D)                                                             
                                                                     
     conv2d_9 (Conv2D)           (None, 8, 8, 128)         147584    
                                                                     
     batch_normalization_6 (Batc  (None, 8, 8, 128)        512       
     hNormalization)                                                 
                                                                     
     conv2d_10 (Conv2D)          (None, 8, 8, 128)         147584    
                                                                     
     batch_normalization_7 (Batc  (None, 8, 8, 128)        512       
     hNormalization)                                                 
                                                                     
     activation_3 (Activation)   (None, 8, 8, 128)         0         
                                                                     
     max_pooling2d_6 (MaxPooling  (None, 4, 4, 128)        0         
     2D)                                                             
                                                                     
     conv2d_11 (Conv2D)          (None, 4, 4, 256)         295168    
                                                                     
     batch_normalization_8 (Batc  (None, 4, 4, 256)        1024      
     hNormalization)                                                 
                                                                     
     conv2d_12 (Conv2D)          (None, 4, 4, 512)         1180160   
                                                                     
     batch_normalization_9 (Batc  (None, 4, 4, 512)        2048      
     hNormalization)                                                 
                                                                     
     activation_4 (Activation)   (None, 4, 4, 512)         0         
                                                                     
     max_pooling2d_7 (MaxPooling  (None, 2, 2, 512)        0         
     2D)                                                             
                                                                     
     flatten_2 (Flatten)         (None, 2048)              0         
                                                                     
     dense_4 (Dense)             (None, 4096)              8392704   
                                                                     
     batch_normalization_10 (Bat  (None, 4096)             16384     
     chNormalization)                                                
                                                                     
     activation_5 (Activation)   (None, 4096)              0         
                                                                     
     dense_5 (Dense)             (None, 1024)              4195328   
                                                                     
     batch_normalization_11 (Bat  (None, 1024)             4096      
     chNormalization)                                                
                                                                     
     activation_6 (Activation)   (None, 1024)              0         
                                                                     
     dense_6 (Dense)             (None, 200)               205000    
                                                                     
     activation_7 (Activation)   (None, 200)               0         
                                                                     
    =================================================================
    Total params: 15,145,992
    Trainable params: 15,132,424
    Non-trainable params: 13,568
    _________________________________________________________________
    None



```python
# Train the model on the training data and validate it on the validation data
…
    layers.Dropout(0.5),
    layers.Dense(200, activation='softmax')
])

time_callback = TimeHistory()

# Compile the model
model4.compile(optimizer=Adam(learning_rate=0.0001),
              loss='categorical_crossentropy',
              metrics=['accuracy'])
```


```python
# Print the model summary
print(model4.summary())
```

    Model: "sequential_3"
    _________________________________________________________________
     Layer (type)                Output Shape              Param #   
    =================================================================
     conv2d_13 (Conv2D)          (None, 64, 64, 64)        1792      
                                                                     
     conv2d_14 (Conv2D)          (None, 64, 64, 64)        36928     
                                                                     
     max_pooling2d_8 (MaxPooling  (None, 32, 32, 64)       0         
     2D)                                                             
                                                                     
     batch_normalization_12 (Bat  (None, 32, 32, 64)       256       
     chNormalization)                                                
                                                                     
     conv2d_15 (Conv2D)          (None, 32, 32, 128)       73856     
                                                                     
     max_pooling2d_9 (MaxPooling  (None, 16, 16, 128)      0         
     2D)                                                             
                                                                     
     batch_normalization_13 (Bat  (None, 16, 16, 128)      512       
     chNormalization)                                                
                                                                     
     conv2d_16 (Conv2D)          (None, 16, 16, 256)       295168    
                                                                     
     conv2d_17 (Conv2D)          (None, 16, 16, 256)       590080    
                                                                     
     max_pooling2d_10 (MaxPoolin  (None, 8, 8, 256)        0         
     g2D)                                                            
                                                                     
     flatten_3 (Flatten)         (None, 16384)             0         
                                                                     
     dense_7 (Dense)             (None, 1024)              16778240  
                                                                     
     dropout (Dropout)           (None, 1024)              0         
                                                                     
     dense_8 (Dense)             (None, 512)               524800    
                                                                     
     dropout_1 (Dropout)         (None, 512)               0         
                                                                     
     dense_9 (Dense)             (None, 200)               102600    
                                                                     
    =================================================================
    Total params: 18,404,232
    Trainable params: 18,403,848
    Non-trainable params: 384
    _________________________________________________________________
    None



```python
# Train the model
with tf.device('/device:GPU:0'):
    history = model4.fit(train_generator,
…
```python
print(model5.summary())
```

    Model: "model"
    __________________________________________________________________________________________________
     Layer (type)                   Output Shape         Param #     Connected to                     
    ==================================================================================================
     input_1 (InputLayer)           [(None, 64, 64, 3)]  0           []                               
                                                                                                      
     conv1_pad (ZeroPadding2D)      (None, 70, 70, 3)    0           ['input_1[0][0]']                
                                                                                                      
     conv1_conv (Conv2D)            (None, 32, 32, 64)   9472        ['conv1_pad[0][0]']              
                                                                                                      
     conv1_bn (BatchNormalization)  (None, 32, 32, 64)   256         ['conv1_conv[0][0]']             
                                                                                                      
     conv1_relu (Activation)        (None, 32, 32, 64)   0           ['conv1_bn[0][0]']               
                                                                                                      
     pool1_pad (ZeroPadding2D)      (None, 34, 34, 64)   0           ['conv1_relu[0][0]']             
                                                                                                      
     pool1_pool (MaxPooling2D)      (None, 16, 16, 64)   0           ['pool1_pad[0][0]']              
                                                                                                      
     conv2_block1_1_conv (Conv2D)   (None, 16, 16, 64)   4160        ['pool1_pool[0][0]']             
                                                                                                      
     conv2_block1_1_bn (BatchNormal  (None, 16, 16, 64)  256         ['conv2_block1_1_conv[0][0]']    
     ization)                                                                                         
                                                                                                      
     conv2_block1_1_relu (Activatio  (None, 16, 16, 64)  0           ['conv2_block1_1_bn[0][0]']      
     n)                                                                                               
                                                                                                      
     conv2_block1_2_conv (Conv2D)   (None, 16, 16, 64)   36928       ['conv2_block1_1_relu[0][0]']    
                                                                                                      
     conv2_block1_2_bn (BatchNormal  (None, 16, 16, 64)  256         ['conv2_block1_2_conv[0][0]']    
     ization)                                                                                         
                                                                                                      
     conv2_block1_2_relu (Activatio  (None, 16, 16, 64)  0           ['conv2_block1_2_bn[0][0]']      
     n)                                                                                               
                                                                                                      
     conv2_block1_0_conv (Conv2D)   (None, 16, 16, 256)  16640       ['pool1_pool[0][0]']             
                                                                                                      
     conv2_block1_3_conv (Conv2D)   (None, 16, 16, 256)  16640       ['conv2_block1_2_relu[0][0]']    
                                                                                                      
     conv2_block1_0_bn (BatchNormal  (None, 16, 16, 256)  1024       ['conv2_block1_0_conv[0][0]']    
     ization)                                                                                         
                                                                                                      
     conv2_block1_3_bn (BatchNormal  (None, 16, 16, 256)  1024       ['conv2_block1_3_conv[0][0]']    
     ization)                                                                                         
                                                                                                      
     conv2_block1_add (Add)         (None, 16, 16, 256)  0           ['conv2_block1_0_bn[0][0]',      
                                                                      'conv2_block1_3_bn[0][0]']      
                                                                                                      
     conv2_block1_out (Activation)  (None, 16, 16, 256)  0           ['conv2_block1_add[0][0]']       
                                                                                                      
     conv2_block2_1_conv (Conv2D)   (None, 16, 16, 64)   16448       ['conv2_block1_out[0][0]']       
                                                                                                      
     conv2_block2_1_bn (BatchNormal  (None, 16, 16, 64)  256         ['conv2_block2_1_conv[0][0]']    
     ization)                                                                                         
                                                                                                      
     conv2_block2_1_relu (Activatio  (None, 16, 16, 64)  0           ['conv2_block2_1_bn[0][0]']      
     n)                                                                                               
                                                                                                      
     conv2_block2_2_conv (Conv2D)   (None, 16, 16, 64)   36928       ['conv2_block2_1_relu[0][0]']    
                                                                                                      
     conv2_block2_2_bn (BatchNormal  (None, 16, 16, 64)  256         ['conv2_block2_2_conv[0][0]']    
     ization)                                                                                         
                                                                                                      
     conv2_block2_2_relu (Activatio  (None, 16, 16, 64)  0           ['conv2_block2_2_bn[0][0]']      
     n)                                                                                               
                                                                                                      
     conv2_block2_3_conv (Conv2D)   (None, 16, 16, 256)  16640       ['conv2_block2_2_relu[0][0]']    
                                                                                                      
     conv2_block2_3_bn (BatchNormal  (None, 16, 16, 256)  1024       ['conv2_block2_3_conv[0][0]']    
     ization)                                                                                         
                                                                                                      
     conv2_block2_add (Add)         (None, 16, 16, 256)  0           ['conv2_block1_out[0][0]',       
                                                                      'conv2_block2_3_bn[0][0]']      
                                                                                                      
     conv2_block2_out (Activation)  (None, 16, 16, 256)  0           ['conv2_block2_add[0][0]']       
                                                                                                      
     conv2_block3_1_conv (Conv2D)   (None, 16, 16, 64)   16448       ['conv2_block2_out[0][0]']       
                                                                                                      
     conv2_block3_1_bn (BatchNormal  (None, 16, 16, 64)  256         ['conv2_block3_1_conv[0][0]']    
     ization)                                                                                         
                                                                                                      
     conv2_block3_1_relu (Activatio  (None, 16, 16, 64)  0           ['conv2_block3_1_bn[0][0]']      
     n)                                                                                               
                                                                                                      
     conv2_block3_2_conv (Conv2D)   (None, 16, 16, 64)   36928       ['conv2_block3_1_relu[0][0]']    
                                                                                                      
     conv2_block3_2_bn (BatchNormal  (None, 16, 16, 64)  256         ['conv2_block3_2_conv[0][0]']    
     ization)                                                                                         
                                                                                                      
     conv2_block3_2_relu (Activatio  (None, 16, 16, 64)  0           ['conv2_block3_2_bn[0][0]']      
     n)                                                                                               
                                                                                                      
     conv2_block3_3_conv (Conv2D)   (None, 16, 16, 256)  16640       ['conv2_block3_2_relu[0][0]']    
                                                                                                      
     conv2_block3_3_bn (BatchNormal  (None, 16, 16, 256)  1024       ['conv2_block3_3_conv[0][0]']    
     ization)                                                                                         
                                                                                                      
     conv2_block3_add (Add)         (None, 16, 16, 256)  0           ['conv2_block2_out[0][0]',       
                                                                      'conv2_block3_3_bn[0][0]']      
                                                                                                      
     conv2_block3_out (Activation)  (None, 16, 16, 256)  0           ['conv2_block3_add[0][0]']       
                                                                                                      
     conv3_block1_1_conv (Conv2D)   (None, 8, 8, 128)    32896       ['conv2_block3_out[0][0]']       
                                                                                                      
     conv3_block1_1_bn (BatchNormal  (None, 8, 8, 128)   512         ['conv3_block1_1_conv[0][0]']    
     ization)                                                                                         
                                                                                                      
     conv3_block1_1_relu (Activatio  (None, 8, 8, 128)   0           ['conv3_block1_1_bn[0][0]']      
     n)                                                                                               
                                                                                                      
     conv3_block1_2_conv (Conv2D)   (None, 8, 8, 128)    147584      ['conv3_block1_1_relu[0][0]']    
                                                                                                      
     conv3_block1_2_bn (BatchNormal  (None, 8, 8, 128)   512         ['conv3_block1_2_conv[0][0]']    
     ization)                                                                                         
                                                                                                      
     conv3_block1_2_relu (Activatio  (None, 8, 8, 128)   0           ['conv3_block1_2_bn[0][0]']      
     n)                                                                                               
                                                                                                      
     conv3_block1_0_conv (Conv2D)   (None, 8, 8, 512)    131584      ['conv2_block3_out[0][0]']       
                                                                                                      
     conv3_block1_3_conv (Conv2D)   (None, 8, 8, 512)    66048       ['conv3_block1_2_relu[0][0]']    
                                                                                                      
     conv3_block1_0_bn (BatchNormal  (None, 8, 8, 512)   2048        ['conv3_block1_0_conv[0][0]']    
     ization)                                                                                         
                                                                                                      
     conv3_block1_3_bn (BatchNormal  (None, 8, 8, 512)   2048        ['conv3_block1_3_conv[0][0]']    
     ization)                                                                                         
                                                                                                      
     conv3_block1_add (Add)         (None, 8, 8, 512)    0           ['conv3_block1_0_bn[0][0]',      
                                                                      'conv3_block1_3_bn[0][0]']      
                                                                                                      
     conv3_block1_out (Activation)  (None, 8, 8, 512)    0           ['conv3_block1_add[0][0]']       
                                                                                                      
     conv3_block2_1_conv (Conv2D)   (None, 8, 8, 128)    65664       ['conv3_block1_out[0][0]']       
                                                                                                      
     conv3_block2_1_bn (BatchNormal  (None, 8, 8, 128)   512         ['conv3_block2_1_conv[0][0]']    
     ization)                                                                                         
                                                                                                      
     conv3_block2_1_relu (Activatio  (None, 8, 8, 128)   0           ['conv3_block2_1_bn[0][0]']      
     n)                                                                                               
                                                                                                      
     conv3_block2_2_conv (Conv2D)   (None, 8, 8, 128)    147584      ['conv3_block2_1_relu[0][0]']    
                                                                                                      
     conv3_block2_2_bn (BatchNormal  (None, 8, 8, 128)   512         ['conv3_block2_2_conv[0][0]']    
     ization)                                                                                         
                                                                                                      
     conv3_block2_2_relu (Activatio  (None, 8, 8, 128)   0           ['conv3_block2_2_bn[0][0]']      
     n)                                                                                               
                                                                                                      
     conv3_block2_3_conv (Conv2D)   (None, 8, 8, 512)    66048       ['conv3_block2_2_relu[0][0]']    
                                                                                                      
     conv3_block2_3_bn (BatchNormal  (None, 8, 8, 512)   2048        ['conv3_block2_3_conv[0][0]']    
     ization)                                                                                         
                                                                                                      
     conv3_block2_add (Add)         (None, 8, 8, 512)    0           ['conv3_block1_out[0][0]',       
                                                                      'conv3_block2_3_bn[0][0]']      
                                                                                                      
     conv3_block2_out (Activation)  (None, 8, 8, 512)    0           ['conv3_block2_add[0][0]']       
                                                                                                      
     conv3_block3_1_conv (Conv2D)   (None, 8, 8, 128)    65664       ['conv3_block2_out[0][0]']       
                                                                                                      
     conv3_block3_1_bn (BatchNormal  (None, 8, 8, 128)   512         ['conv3_block3_1_conv[0][0]']    
     ization)                                                                                         
                                                                                                      
     conv3_block3_1_relu (Activatio  (None, 8, 8, 128)   0           ['conv3_block3_1_bn[0][0]']      
     n)                                                                                               
                                                                                                      
     conv3_block3_2_conv (Conv2D)   (None, 8, 8, 128)    147584      ['conv3_block3_1_relu[0][0]']    
                                                                                                      
     conv3_block3_2_bn (BatchNormal  (None, 8, 8, 128)   512         ['conv3_block3_2_conv[0][0]']    
     ization)                                                                                         
                                                                                                      
     conv3_block3_2_relu (Activatio  (None, 8, 8, 128)   0           ['conv3_block3_2_bn[0][0]']      
     n)                                                                                               
                                                                                                      
     conv3_block3_3_conv (Conv2D)   (None, 8, 8, 512)    66048       ['conv3_block3_2_relu[0][0]']    
                                                                                                      
     conv3_block3_3_bn (BatchNormal  (None, 8, 8, 512)   2048        ['conv3_block3_3_conv[0][0]']    
     ization)                                                                                         
                                                                                                      
     conv3_block3_add (Add)         (None, 8, 8, 512)    0           ['conv3_block2_out[0][0]',       
                                                                      'conv3_block3_3_bn[0][0]']      
                                                                                                      
     conv3_block3_out (Activation)  (None, 8, 8, 512)    0           ['conv3_block3_add[0][0]']       
                                                                                                      
     conv3_block4_1_conv (Conv2D)   (None, 8, 8, 128)    65664       ['conv3_block3_out[0][0]']       
                                                                                                      
     conv3_block4_1_bn (BatchNormal  (None, 8, 8, 128)   512         ['conv3_block4_1_conv[0][0]']    
     ization)                                                                                         
                                                                                                      
     conv3_block4_1_relu (Activatio  (None, 8, 8, 128)   0           ['conv3_block4_1_bn[0][0]']      
     n)                                                                                               
                                                                                                      
     conv3_block4_2_conv (Conv2D)   (None, 8, 8, 128)    147584      ['conv3_block4_1_relu[0][0]']    
                                                                                                      
     conv3_block4_2_bn (BatchNormal  (None, 8, 8, 128)   512         ['conv3_block4_2_conv[0][0]']    
     ization)                                                                                         
                                                                                                      
     conv3_block4_2_relu (Activatio  (None, 8, 8, 128)   0           ['conv3_block4_2_bn[0][0]']      
     n)                                                                                               
                                                                                                      
     conv3_block4_3_conv (Conv2D)   (None, 8, 8, 512)    66048       ['conv3_block4_2_relu[0][0]']    
                                                                                                      
     conv3_block4_3_bn (BatchNormal  (None, 8, 8, 512)   2048        ['conv3_block4_3_conv[0][0]']    
     ization)                                                                                         
                                                                                                      
     conv3_block4_add (Add)         (None, 8, 8, 512)    0           ['conv3_block3_out[0][0]',       
                                                                      'conv3_block4_3_bn[0][0]']      
                                                                                                      
     conv3_block4_out (Activation)  (None, 8, 8, 512)    0           ['conv3_block4_add[0][0]']       
                                                                                                      
     conv4_block1_1_conv (Conv2D)   (None, 4, 4, 256)    131328      ['conv3_block4_out[0][0]']       
                                                                                                      
     conv4_block1_1_bn (BatchNormal  (None, 4, 4, 256)   1024        ['conv4_block1_1_conv[0][0]']    
     ization)                                                                                         
                                                                                                      
     conv4_block1_1_relu (Activatio  (None, 4, 4, 256)   0           ['conv4_block1_1_bn[0][0]']      
     n)                                                                                               
                                                                                                      
     conv4_block1_2_conv (Conv2D)   (None, 4, 4, 256)    590080      ['conv4_block1_1_relu[0][0]']    
                                                                                                      
     conv4_block1_2_bn (BatchNormal  (None, 4, 4, 256)   1024        ['conv4_block1_2_conv[0][0]']    
     ization)                                                                                         
                                                                                                      
     conv4_block1_2_relu (Activatio  (None, 4, 4, 256)   0           ['conv4_block1_2_bn[0][0]']      
     n)                                                                                               
                                                                                                      
     conv4_block1_0_conv (Conv2D)   (None, 4, 4, 1024)   525312      ['conv3_block4_out[0][0]']       
                                                                                                      
     conv4_block1_3_conv (Conv2D)   (None, 4, 4, 1024)   263168      ['conv4_block1_2_relu[0][0]']    
                                                                                                      
     conv4_block1_0_bn (BatchNormal  (None, 4, 4, 1024)  4096        ['conv4_block1_0_conv[0][0]']    
     ization)                                                                                         
                                                                                                      
     conv4_block1_3_bn (BatchNormal  (None, 4, 4, 1024)  4096        ['conv4_block1_3_conv[0][0]']    
     ization)                                                                                         
                                                                                                      
     conv4_block1_add (Add)         (None, 4, 4, 1024)   0           ['conv4_block1_0_bn[0][0]',      
                                                                      'conv4_block1_3_bn[0][0]']      
                                                                                                      
     conv4_block1_out (Activation)  (None, 4, 4, 1024)   0           ['conv4_block1_add[0][0]']       
                                                                                                      
     conv4_block2_1_conv (Conv2D)   (None, 4, 4, 256)    262400      ['conv4_block1_out[0][0]']       
                                                                                                      
     conv4_block2_1_bn (BatchNormal  (None, 4, 4, 256)   1024        ['conv4_block2_1_conv[0][0]']    
     ization)                                                                                         
                                                                                                      
     conv4_block2_1_relu (Activatio  (None, 4, 4, 256)   0           ['conv4_block2_1_bn[0][0]']      
     n)                                                                                               
                                                                                                      
     conv4_block2_2_conv (Conv2D)   (None, 4, 4, 256)    590080      ['conv4_block2_1_relu[0][0]']    
                                                                                                      
     conv4_block2_2_bn (BatchNormal  (None, 4, 4, 256)   1024        ['conv4_block2_2_conv[0][0]']    
     ization)                                                                                         
                                                                                                      
     conv4_block2_2_relu (Activatio  (None, 4, 4, 256)   0           ['conv4_block2_2_bn[0][0]']      
     n)                                                                                               
                                                                                                      
     conv4_block2_3_conv (Conv2D)   (None, 4, 4, 1024)   263168      ['conv4_block2_2_relu[0][0]']    
                                                                                                      
     conv4_block2_3_bn (BatchNormal  (None, 4, 4, 1024)  4096        ['conv4_block2_3_conv[0][0]']    
     ization)                                                                                         
                                                                                                      
     conv4_block2_add (Add)         (None, 4, 4, 1024)   0           ['conv4_block1_out[0][0]',       
                                                                      'conv4_block2_3_bn[0][0]']      
                                                                                                      
     conv4_block2_out (Activation)  (None, 4, 4, 1024)   0           ['conv4_block2_add[0][0]']       
                                                                                                      
     conv4_block3_1_conv (Conv2D)   (None, 4, 4, 256)    262400      ['conv4_block2_out[0][0]']       
                                                                                                      
     conv4_block3_1_bn (BatchNormal  (None, 4, 4, 256)   1024        ['conv4_block3_1_conv[0][0]']    
     ization)                                                                                         
                                                                                                      
     conv4_block3_1_relu (Activatio  (None, 4, 4, 256)   0           ['conv4_block3_1_bn[0][0]']      
     n)                                                                                               
                                                                                                      
     conv4_block3_2_conv (Conv2D)   (None, 4, 4, 256)    590080      ['conv4_block3_1_relu[0][0]']    
                                                                                                      
     conv4_block3_2_bn (BatchNormal  (None, 4, 4, 256)   1024        ['conv4_block3_2_conv[0][0]']    
     ization)                                                                                         
                                                                                                      
     conv4_block3_2_relu (Activatio  (None, 4, 4, 256)   0           ['conv4_block3_2_bn[0][0]']      
     n)                                                                                               
                                                                                                      
     conv4_block3_3_conv (Conv2D)   (None, 4, 4, 1024)   263168      ['conv4_block3_2_relu[0][0]']    
                                                                                                      
     conv4_block3_3_bn (BatchNormal  (None, 4, 4, 1024)  4096        ['conv4_block3_3_conv[0][0]']    
     ization)                                                                                         
                                                                                                      
     conv4_block3_add (Add)         (None, 4, 4, 1024)   0           ['conv4_block2_out[0][0]',       
                                                                      'conv4_block3_3_bn[0][0]']      
                                                                                                      
     conv4_block3_out (Activation)  (None, 4, 4, 1024)   0           ['conv4_block3_add[0][0]']       
                                                                                                      
     conv4_block4_1_conv (Conv2D)   (None, 4, 4, 256)    262400      ['conv4_block3_out[0][0]']       
                                                                                                      
     conv4_block4_1_bn (BatchNormal  (None, 4, 4, 256)   1024        ['conv4_block4_1_conv[0][0]']    
     ization)                                                                                         
                                                                                                      
     conv4_block4_1_relu (Activatio  (None, 4, 4, 256)   0           ['conv4_block4_1_bn[0][0]']      
     n)                                                                                               
                                                                                                      
     conv4_block4_2_conv (Conv2D)   (None, 4, 4, 256)    590080      ['conv4_block4_1_relu[0][0]']    
                                                                                                      
     conv4_block4_2_bn (BatchNormal  (None, 4, 4, 256)   1024        ['conv4_block4_2_conv[0][0]']    
     ization)                                                                                         
                                                                                                      
     conv4_block4_2_relu (Activatio  (None, 4, 4, 256)   0           ['conv4_block4_2_bn[0][0]']      
     n)                                                                                               
                                                                                                      
     conv4_block4_3_conv (Conv2D)   (None, 4, 4, 1024)   263168      ['conv4_block4_2_relu[0][0]']    
                                                                                                      
     conv4_block4_3_bn (BatchNormal  (None, 4, 4, 1024)  4096        ['conv4_block4_3_conv[0][0]']    
     ization)                                                                                         
                                                                                                      
     conv4_block4_add (Add)         (None, 4, 4, 1024)   0           ['conv4_block3_out[0][0]',       
                                                                      'conv4_block4_3_bn[0][0]']      
                                                                                                      
     conv4_block4_out (Activation)  (None, 4, 4, 1024)   0           ['conv4_block4_add[0][0]']       
                                                                                                      
     conv4_block5_1_conv (Conv2D)   (None, 4, 4, 256)    262400      ['conv4_block4_out[0][0]']       
                                                                                                      
     conv4_block5_1_bn (BatchNormal  (None, 4, 4, 256)   1024        ['conv4_block5_1_conv[0][0]']    
     ization)                                                                                         
                                                                                                      
     conv4_block5_1_relu (Activatio  (None, 4, 4, 256)   0           ['conv4_block5_1_bn[0][0]']      
     n)                                                                                               
                                                                                                      
     conv4_block5_2_conv (Conv2D)   (None, 4, 4, 256)    590080      ['conv4_block5_1_relu[0][0]']    
                                                                                                      
     conv4_block5_2_bn (BatchNormal  (None, 4, 4, 256)   1024        ['conv4_block5_2_conv[0][0]']    
     ization)                                                                                         
                                                                                                      
     conv4_block5_2_relu (Activatio  (None, 4, 4, 256)   0           ['conv4_block5_2_bn[0][0]']      
     n)                                                                                               
                                                                                                      
     conv4_block5_3_conv (Conv2D)   (None, 4, 4, 1024)   263168      ['conv4_block5_2_relu[0][0]']    
                                                                                                      
     conv4_block5_3_bn (BatchNormal  (None, 4, 4, 1024)  4096        ['conv4_block5_3_conv[0][0]']    
     ization)                                                                                         
                                                                                                      
     conv4_block5_add (Add)         (None, 4, 4, 1024)   0           ['conv4_block4_out[0][0]',       
                                                                      'conv4_block5_3_bn[0][0]']      
                                                                                                      
     conv4_block5_out (Activation)  (None, 4, 4, 1024)   0           ['conv4_block5_add[0][0]']       
                                                                                                      
     conv4_block6_1_conv (Conv2D)   (None, 4, 4, 256)    262400      ['conv4_block5_out[0][0]']       
                                                                                                      
     conv4_block6_1_bn (BatchNormal  (None, 4, 4, 256)   1024        ['conv4_block6_1_conv[0][0]']    
     ization)                                                                                         
                                                                                                      
     conv4_block6_1_relu (Activatio  (None, 4, 4, 256)   0           ['conv4_block6_1_bn[0][0]']      
     n)                                                                                               
                                                                                                      
     conv4_block6_2_conv (Conv2D)   (None, 4, 4, 256)    590080      ['conv4_block6_1_relu[0][0]']    
                                                                                                      
     conv4_block6_2_bn (BatchNormal  (None, 4, 4, 256)   1024        ['conv4_block6_2_conv[0][0]']    
     ization)                                                                                         
                                                                                                      
     conv4_block6_2_relu (Activatio  (None, 4, 4, 256)   0           ['conv4_block6_2_bn[0][0]']      
     n)                                                                                               
                                                                                                      
     conv4_block6_3_conv (Conv2D)   (None, 4, 4, 1024)   263168      ['conv4_block6_2_relu[0][0]']    
                                                                                                      
     conv4_block6_3_bn (BatchNormal  (None, 4, 4, 1024)  4096        ['conv4_block6_3_conv[0][0]']    
     ization)                                                                                         
                                                                                                      
     conv4_block6_add (Add)         (None, 4, 4, 1024)   0           ['conv4_block5_out[0][0]',       
                                                                      'conv4_block6_3_bn[0][0]']      
                                                                                                      
     conv4_block6_out (Activation)  (None, 4, 4, 1024)   0           ['conv4_block6_add[0][0]']       
                                                                                                      
     conv5_block1_1_conv (Conv2D)   (None, 2, 2, 512)    524800      ['conv4_block6_out[0][0]']       
                                                                                                      
     conv5_block1_1_bn (BatchNormal  (None, 2, 2, 512)   2048        ['conv5_block1_1_conv[0][0]']    
     ization)                                                                                         
                                                                                                      
     conv5_block1_1_relu (Activatio  (None, 2, 2, 512)   0           ['conv5_block1_1_bn[0][0]']      
     n)                                                                                               
                                                                                                      
     conv5_block1_2_conv (Conv2D)   (None, 2, 2, 512)    2359808     ['conv5_block1_1_relu[0][0]']    
                                                                                                      
     conv5_block1_2_bn (BatchNormal  (None, 2, 2, 512)   2048        ['conv5_block1_2_conv[0][0]']    
     ization)                                                                                         
                                                                                                      
     conv5_block1_2_relu (Activatio  (None, 2, 2, 512)   0           ['conv5_block1_2_bn[0][0]']      
     n)                                                                                               
                                                                                                      
     conv5_block1_0_conv (Conv2D)   (None, 2, 2, 2048)   2099200     ['conv4_block6_out[0][0]']       
                                                                                                      
     conv5_block1_3_conv (Conv2D)   (None, 2, 2, 2048)   1050624     ['conv5_block1_2_relu[0][0]']    
                                                                                                      
     conv5_block1_0_bn (BatchNormal  (None, 2, 2, 2048)  8192        ['conv5_block1_0_conv[0][0]']    
     ization)                                                                                         
                                                                                                      
     conv5_block1_3_bn (BatchNormal  (None, 2, 2, 2048)  8192        ['conv5_block1_3_conv[0][0]']    
     ization)                                                                                         
                                                                                                      
     conv5_block1_add (Add)         (None, 2, 2, 2048)   0           ['conv5_block1_0_bn[0][0]',      
                                                                      'conv5_block1_3_bn[0][0]']      
                                                                                                      
     conv5_block1_out (Activation)  (None, 2, 2, 2048)   0           ['conv5_block1_add[0][0]']       
                                                                                                      
     conv5_block2_1_conv (Conv2D)   (None, 2, 2, 512)    1049088     ['conv5_block1_out[0][0]']       
                                                                                                      
     conv5_block2_1_bn (BatchNormal  (None, 2, 2, 512)   2048        ['conv5_block2_1_conv[0][0]']    
     ization)                                                                                         
                                                                                                      
     conv5_block2_1_relu (Activatio  (None, 2, 2, 512)   0           ['conv5_block2_1_bn[0][0]']      
     n)                                                                                               
                                                                                                      
     conv5_block2_2_conv (Conv2D)   (None, 2, 2, 512)    2359808     ['conv5_block2_1_relu[0][0]']    
                                                                                                      
     conv5_block2_2_bn (BatchNormal  (None, 2, 2, 512)   2048        ['conv5_block2_2_conv[0][0]']    
     ization)                                                                                         
                                                                                                      
     conv5_block2_2_relu (Activatio  (None, 2, 2, 512)   0           ['conv5_block2_2_bn[0][0]']      
     n)                                                                                               
                                                                                                      
     conv5_block2_3_conv (Conv2D)   (None, 2, 2, 2048)   1050624     ['conv5_block2_2_relu[0][0]']    
                                                                                                      
     conv5_block2_3_bn (BatchNormal  (None, 2, 2, 2048)  8192        ['conv5_block2_3_conv[0][0]']    
     ization)                                                                                         
                                                                                                      
     conv5_block2_add (Add)         (None, 2, 2, 2048)   0           ['conv5_block1_out[0][0]',       
                                                                      'conv5_block2_3_bn[0][0]']      
                                                                                                      
     conv5_block2_out (Activation)  (None, 2, 2, 2048)   0           ['conv5_block2_add[0][0]']       
                                                                                                      
     conv5_block3_1_conv (Conv2D)   (None, 2, 2, 512)    1049088     ['conv5_block2_out[0][0]']       
                                                                                                      
     conv5_block3_1_bn (BatchNormal  (None, 2, 2, 512)   2048        ['conv5_block3_1_conv[0][0]']    
     ization)                                                                                         
                                                                                                      
     conv5_block3_1_relu (Activatio  (None, 2, 2, 512)   0           ['conv5_block3_1_bn[0][0]']      
     n)                                                                                               
                                                                                                      
     conv5_block3_2_conv (Conv2D)   (None, 2, 2, 512)    2359808     ['conv5_block3_1_relu[0][0]']    
                                                                                                      
     conv5_block3_2_bn (BatchNormal  (None, 2, 2, 512)   2048        ['conv5_block3_2_conv[0][0]']    
     ization)                                                                                         
                                                                                                      
     conv5_block3_2_relu (Activatio  (None, 2, 2, 512)   0           ['conv5_block3_2_bn[0][0]']      
     n)                                                                                               
                                                                                                      
     conv5_block3_3_conv (Conv2D)   (None, 2, 2, 2048)   1050624     ['conv5_block3_2_relu[0][0]']    
                                                                                                      
     conv5_block3_3_bn (BatchNormal  (None, 2, 2, 2048)  8192        ['conv5_block3_3_conv[0][0]']    
     ization)                                                                                         
                                                                                                      
     conv5_block3_add (Add)         (None, 2, 2, 2048)   0           ['conv5_block2_out[0][0]',       
                                                                      'conv5_block3_3_bn[0][0]']      
                                                                                                      
     conv5_block3_out (Activation)  (None, 2, 2, 2048)   0           ['conv5_block3_add[0][0]']       
                                                                                                      
     global_average_pooling2d (Glob  (None, 2048)        0           ['conv5_block3_out[0][0]']       
     alAveragePooling2D)                                                                              
                                                                                                      
     dense (Dense)                  (None, 1024)         2098176     ['global_average_pooling2d[0][0]'
                                                                     ]                                
                                                                                                      
     dropout (Dropout)              (None, 1024)         0           ['dense[0][0]']                  
                                                                                                      
     dense_1 (Dense)                (None, 200)          205000      ['dropout[0][0]']                
                                                                                                      
    ==================================================================================================
    Total params: 25,890,888
    Trainable params: 25,837,768
    Non-trainable params: 53,120
    __________________________________________________________________________________________________
…
print(model6.summary())
```

    Model: "model_1"
    __________________________________________________________________________________________________
     Layer (type)                   Output Shape         Param #     Connected to                     
    ==================================================================================================
     input_2 (InputLayer)           [(None, 64, 64, 3)]  0           []                               
                                                                                                      
     conv1_pad (ZeroPadding2D)      (None, 70, 70, 3)    0           ['input_2[0][0]']                
                                                                                                      
     conv1_conv (Conv2D)            (None, 32, 32, 64)   9472        ['conv1_pad[0][0]']              
                                                                                                      
     conv1_bn (BatchNormalization)  (None, 32, 32, 64)   256         ['conv1_conv[0][0]']             
                                                                                                      
     conv1_relu (Activation)        (None, 32, 32, 64)   0           ['conv1_bn[0][0]']               
                                                                                                      
     pool1_pad (ZeroPadding2D)      (None, 34, 34, 64)   0           ['conv1_relu[0][0]']             
                                                                                                      
     pool1_pool (MaxPooling2D)      (None, 16, 16, 64)   0           ['pool1_pad[0][0]']              
                                                                                                      
     conv2_block1_1_conv (Conv2D)   (None, 16, 16, 64)   4160        ['pool1_pool[0][0]']             
                                                                                                      
     conv2_block1_1_bn (BatchNormal  (None, 16, 16, 64)  256         ['conv2_block1_1_conv[0][0]']    
     ization)                                                                                         
                                                                                                      
     conv2_block1_1_relu (Activatio  (None, 16, 16, 64)  0           ['conv2_block1_1_bn[0][0]']      
     n)                                                                                               
                                                                                                      
     conv2_block1_2_conv (Conv2D)   (None, 16, 16, 64)   36928       ['conv2_block1_1_relu[0][0]']    
                                                                                                      
     conv2_block1_2_bn (BatchNormal  (None, 16, 16, 64)  256         ['conv2_block1_2_conv[0][0]']    
     ization)                                                                                         
                                                                                                      
     conv2_block1_2_relu (Activatio  (None, 16, 16, 64)  0           ['conv2_block1_2_bn[0][0]']      
     n)                                                                                               
                                                                                                      
     conv2_block1_0_conv (Conv2D)   (None, 16, 16, 256)  16640       ['pool1_pool[0][0]']             
                                                                                                      
     conv2_block1_3_conv (Conv2D)   (None, 16, 16, 256)  16640       ['conv2_block1_2_relu[0][0]']    
                                                                                                      
     conv2_block1_0_bn (BatchNormal  (None, 16, 16, 256)  1024       ['conv2_block1_0_conv[0][0]']    
     ization)                                                                                         
                                                                                                      
     conv2_block1_3_bn (BatchNormal  (None, 16, 16, 256)  1024       ['conv2_block1_3_conv[0][0]']    
     ization)                                                                                         
                                                                                                      
     conv2_block1_add (Add)         (None, 16, 16, 256)  0           ['conv2_block1_0_bn[0][0]',      
                                                                      'conv2_block1_3_bn[0][0]']      
                                                                                                      
     conv2_block1_out (Activation)  (None, 16, 16, 256)  0           ['conv2_block1_add[0][0]']       
                                                                                                      
     conv2_block2_1_conv (Conv2D)   (None, 16, 16, 64)   16448       ['conv2_block1_out[0][0]']       
                                                                                                      
     conv2_block2_1_bn (BatchNormal  (None, 16, 16, 64)  256         ['conv2_block2_1_conv[0][0]']    
     ization)                                                                                         
                                                                                                      
     conv2_block2_1_relu (Activatio  (None, 16, 16, 64)  0           ['conv2_block2_1_bn[0][0]']      
     n)                                                                                               
                                                                                                      
     conv2_block2_2_conv (Conv2D)   (None, 16, 16, 64)   36928       ['conv2_block2_1_relu[0][0]']    
                                                                                                      
     conv2_block2_2_bn (BatchNormal  (None, 16, 16, 64)  256         ['conv2_block2_2_conv[0][0]']    
     ization)                                                                                         
                                                                                                      
     conv2_block2_2_relu (Activatio  (None, 16, 16, 64)  0           ['conv2_block2_2_bn[0][0]']      
     n)                                                                                               
                                                                                                      
     conv2_block2_3_conv (Conv2D)   (None, 16, 16, 256)  16640       ['conv2_block2_2_relu[0][0]']    
                                                                                                      
     conv2_block2_3_bn (BatchNormal  (None, 16, 16, 256)  1024       ['conv2_block2_3_conv[0][0]']    
     ization)                                                                                         
                                                                                                      
     conv2_block2_add (Add)         (None, 16, 16, 256)  0           ['conv2_block1_out[0][0]',       
                                                                      'conv2_block2_3_bn[0][0]']      
                                                                                                      
     conv2_block2_out (Activation)  (None, 16, 16, 256)  0           ['conv2_block2_add[0][0]']       
                                                                                                      
     conv2_block3_1_conv (Conv2D)   (None, 16, 16, 64)   16448       ['conv2_block2_out[0][0]']       
                                                                                                      
     conv2_block3_1_bn (BatchNormal  (None, 16, 16, 64)  256         ['conv2_block3_1_conv[0][0]']    
     ization)                                                                                         
                                                                                                      
     conv2_block3_1_relu (Activatio  (None, 16, 16, 64)  0           ['conv2_block3_1_bn[0][0]']      
     n)                                                                                               
                                                                                                      
     conv2_block3_2_conv (Conv2D)   (None, 16, 16, 64)   36928       ['conv2_block3_1_relu[0][0]']    
                                                                                                      
     conv2_block3_2_bn (BatchNormal  (None, 16, 16, 64)  256         ['conv2_block3_2_conv[0][0]']    
     ization)                                                                                         
                                                                                                      
     conv2_block3_2_relu (Activatio  (None, 16, 16, 64)  0           ['conv2_block3_2_bn[0][0]']      
     n)                                                                                               
                                                                                                      
     conv2_block3_3_conv (Conv2D)   (None, 16, 16, 256)  16640       ['conv2_block3_2_relu[0][0]']    
                                                                                                      
     conv2_block3_3_bn (BatchNormal  (None, 16, 16, 256)  1024       ['conv2_block3_3_conv[0][0]']    
     ization)                                                                                         
                                                                                                      
     conv2_block3_add (Add)         (None, 16, 16, 256)  0           ['conv2_block2_out[0][0]',       
                                                                      'conv2_block3_3_bn[0][0]']      
                                                                                                      
     conv2_block3_out (Activation)  (None, 16, 16, 256)  0           ['conv2_block3_add[0][0]']       
                                                                                                      
     conv3_block1_1_conv (Conv2D)   (None, 8, 8, 128)    32896       ['conv2_block3_out[0][0]']       
                                                                                                      
     conv3_block1_1_bn (BatchNormal  (None, 8, 8, 128)   512         ['conv3_block1_1_conv[0][0]']    
     ization)                                                                                         
                                                                                                      
     conv3_block1_1_relu (Activatio  (None, 8, 8, 128)   0           ['conv3_block1_1_bn[0][0]']      
     n)                                                                                               
                                                                                                      
     conv3_block1_2_conv (Conv2D)   (None, 8, 8, 128)    147584      ['conv3_block1_1_relu[0][0]']    
                                                                                                      
     conv3_block1_2_bn (BatchNormal  (None, 8, 8, 128)   512         ['conv3_block1_2_conv[0][0]']    
     ization)                                                                                         
                                                                                                      
     conv3_block1_2_relu (Activatio  (None, 8, 8, 128)   0           ['conv3_block1_2_bn[0][0]']      
     n)                                                                                               
                                                                                                      
     conv3_block1_0_conv (Conv2D)   (None, 8, 8, 512)    131584      ['conv2_block3_out[0][0]']       
                                                                                                      
     conv3_block1_3_conv (Conv2D)   (None, 8, 8, 512)    66048       ['conv3_block1_2_relu[0][0]']    
                                                                                                      
     conv3_block1_0_bn (BatchNormal  (None, 8, 8, 512)   2048        ['conv3_block1_0_conv[0][0]']    
     ization)                                                                                         
                                                                                                      
     conv3_block1_3_bn (BatchNormal  (None, 8, 8, 512)   2048        ['conv3_block1_3_conv[0][0]']    
     ization)                                                                                         
                                                                                                      
     conv3_block1_add (Add)         (None, 8, 8, 512)    0           ['conv3_block1_0_bn[0][0]',      
                                                                      'conv3_block1_3_bn[0][0]']      
                                                                                                      
     conv3_block1_out (Activation)  (None, 8, 8, 512)    0           ['conv3_block1_add[0][0]']       
                                                                                                      
     conv3_block2_1_conv (Conv2D)   (None, 8, 8, 128)    65664       ['conv3_block1_out[0][0]']       
                                                                                                      
     conv3_block2_1_bn (BatchNormal  (None, 8, 8, 128)   512         ['conv3_block2_1_conv[0][0]']    
     ization)                                                                                         
                                                                                                      
     conv3_block2_1_relu (Activatio  (None, 8, 8, 128)   0           ['conv3_block2_1_bn[0][0]']      
     n)                                                                                               
                                                                                                      
     conv3_block2_2_conv (Conv2D)   (None, 8, 8, 128)    147584      ['conv3_block2_1_relu[0][0]']    
                                                                                                      
     conv3_block2_2_bn (BatchNormal  (None, 8, 8, 128)   512         ['conv3_block2_2_conv[0][0]']    
     ization)                                                                                         
                                                                                                      
     conv3_block2_2_relu (Activatio  (None, 8, 8, 128)   0           ['conv3_block2_2_bn[0][0]']      
     n)                                                                                               
                                                                                                      
     conv3_block2_3_conv (Conv2D)   (None, 8, 8, 512)    66048       ['conv3_block2_2_relu[0][0]']    
                                                                                                      
     conv3_block2_3_bn (BatchNormal  (None, 8, 8, 512)   2048        ['conv3_block2_3_conv[0][0]']    
     ization)                                                                                         
                                                                                                      
     conv3_block2_add (Add)         (None, 8, 8, 512)    0           ['conv3_block1_out[0][0]',       
                                                                      'conv3_block2_3_bn[0][0]']      
                                                                                                      
     conv3_block2_out (Activation)  (None, 8, 8, 512)    0           ['conv3_block2_add[0][0]']       
                                                                                                      
     conv3_block3_1_conv (Conv2D)   (None, 8, 8, 128)    65664       ['conv3_block2_out[0][0]']       
                                                                                                      
     conv3_block3_1_bn (BatchNormal  (None, 8, 8, 128)   512         ['conv3_block3_1_conv[0][0]']    
     ization)                                                                                         
                                                                                                      
     conv3_block3_1_relu (Activatio  (None, 8, 8, 128)   0           ['conv3_block3_1_bn[0][0]']      
     n)                                                                                               
                                                                                                      
     conv3_block3_2_conv (Conv2D)   (None, 8, 8, 128)    147584      ['conv3_block3_1_relu[0][0]']    
                                                                                                      
     conv3_block3_2_bn (BatchNormal  (None, 8, 8, 128)   512         ['conv3_block3_2_conv[0][0]']    
     ization)                                                                                         
                                                                                                      
     conv3_block3_2_relu (Activatio  (None, 8, 8, 128)   0           ['conv3_block3_2_bn[0][0]']      
     n)                                                                                               
                                                                                                      
     conv3_block3_3_conv (Conv2D)   (None, 8, 8, 512)    66048       ['conv3_block3_2_relu[0][0]']    
                                                                                                      
     conv3_block3_3_bn (BatchNormal  (None, 8, 8, 512)   2048        ['conv3_block3_3_conv[0][0]']    
     ization)                                                                                         
                                                                                                      
     conv3_block3_add (Add)         (None, 8, 8, 512)    0           ['conv3_block2_out[0][0]',       
                                                                      'conv3_block3_3_bn[0][0]']      
                                                                                                      
     conv3_block3_out (Activation)  (None, 8, 8, 512)    0           ['conv3_block3_add[0][0]']       
                                                                                                      
     conv3_block4_1_conv (Conv2D)   (None, 8, 8, 128)    65664       ['conv3_block3_out[0][0]']       
                                                                                                      
     conv3_block4_1_bn (BatchNormal  (None, 8, 8, 128)   512         ['conv3_block4_1_conv[0][0]']    
     ization)                                                                                         
                                                                                                      
     conv3_block4_1_relu (Activatio  (None, 8, 8, 128)   0           ['conv3_block4_1_bn[0][0]']      
     n)                                                                                               
                                                                                                      
     conv3_block4_2_conv (Conv2D)   (None, 8, 8, 128)    147584      ['conv3_block4_1_relu[0][0]']    
                                                                                                      
     conv3_block4_2_bn (BatchNormal  (None, 8, 8, 128)   512         ['conv3_block4_2_conv[0][0]']    
     ization)                                                                                         
                                                                                                      
     conv3_block4_2_relu (Activatio  (None, 8, 8, 128)   0           ['conv3_block4_2_bn[0][0]']      
     n)                                                                                               
                                                                                                      
     conv3_block4_3_conv (Conv2D)   (None, 8, 8, 512)    66048       ['conv3_block4_2_relu[0][0]']    
                                                                                                      
     conv3_block4_3_bn (BatchNormal  (None, 8, 8, 512)   2048        ['conv3_block4_3_conv[0][0]']    
     ization)                                                                                         
                                                                                                      
     conv3_block4_add (Add)         (None, 8, 8, 512)    0           ['conv3_block3_out[0][0]',       
                                                                      'conv3_block4_3_bn[0][0]']      
                                                                                                      
     conv3_block4_out (Activation)  (None, 8, 8, 512)    0           ['conv3_block4_add[0][0]']       
                                                                                                      
     conv4_block1_1_conv (Conv2D)   (None, 4, 4, 256)    131328      ['conv3_block4_out[0][0]']       
                                                                                                      
     conv4_block1_1_bn (BatchNormal  (None, 4, 4, 256)   1024        ['conv4_block1_1_conv[0][0]']    
     ization)                                                                                         
                                                                                                      
     conv4_block1_1_relu (Activatio  (None, 4, 4, 256)   0           ['conv4_block1_1_bn[0][0]']      
     n)                                                                                               
                                                                                                      
     conv4_block1_2_conv (Conv2D)   (None, 4, 4, 256)    590080      ['conv4_block1_1_relu[0][0]']    
                                                                                                      
     conv4_block1_2_bn (BatchNormal  (None, 4, 4, 256)   1024        ['conv4_block1_2_conv[0][0]']    
     ization)                                                                                         
                                                                                                      
     conv4_block1_2_relu (Activatio  (None, 4, 4, 256)   0           ['conv4_block1_2_bn[0][0]']      
     n)                                                                                               
                                                                                                      
     conv4_block1_0_conv (Conv2D)   (None, 4, 4, 1024)   525312      ['conv3_block4_out[0][0]']       
                                                                                                      
     conv4_block1_3_conv (Conv2D)   (None, 4, 4, 1024)   263168      ['conv4_block1_2_relu[0][0]']    
                                                                                                      
     conv4_block1_0_bn (BatchNormal  (None, 4, 4, 1024)  4096        ['conv4_block1_0_conv[0][0]']    
     ization)                                                                                         
                                                                                                      
     conv4_block1_3_bn (BatchNormal  (None, 4, 4, 1024)  4096        ['conv4_block1_3_conv[0][0]']    
     ization)                                                                                         
                                                                                                      
     conv4_block1_add (Add)         (None, 4, 4, 1024)   0           ['conv4_block1_0_bn[0][0]',      
                                                                      'conv4_block1_3_bn[0][0]']      
                                                                                                      
     conv4_block1_out (Activation)  (None, 4, 4, 1024)   0           ['conv4_block1_add[0][0]']       
                                                                                                      
     conv4_block2_1_conv (Conv2D)   (None, 4, 4, 256)    262400      ['conv4_block1_out[0][0]']       
                                                                                                      
     conv4_block2_1_bn (BatchNormal  (None, 4, 4, 256)   1024        ['conv4_block2_1_conv[0][0]']    
     ization)                                                                                         
                                                                                                      
     conv4_block2_1_relu (Activatio  (None, 4, 4, 256)   0           ['conv4_block2_1_bn[0][0]']      
     n)                                                                                               
                                                                                                      
     conv4_block2_2_conv (Conv2D)   (None, 4, 4, 256)    590080      ['conv4_block2_1_relu[0][0]']    
                                                                                                      
     conv4_block2_2_bn (BatchNormal  (None, 4, 4, 256)   1024        ['conv4_block2_2_conv[0][0]']    
     ization)                                                                                         
                                                                                                      
     conv4_block2_2_relu (Activatio  (None, 4, 4, 256)   0           ['conv4_block2_2_bn[0][0]']      
     n)                                                                                               
                                                                                                      
     conv4_block2_3_conv (Conv2D)   (None, 4, 4, 1024)   263168      ['conv4_block2_2_relu[0][0]']    
                                                                                                      
     conv4_block2_3_bn (BatchNormal  (None, 4, 4, 1024)  4096        ['conv4_block2_3_conv[0][0]']    
     ization)                                                                                         
                                                                                                      
     conv4_block2_add (Add)         (None, 4, 4, 1024)   0           ['conv4_block1_out[0][0]',       
                                                                      'conv4_block2_3_bn[0][0]']      
                                                                                                      
     conv4_block2_out (Activation)  (None, 4, 4, 1024)   0           ['conv4_block2_add[0][0]']       
                                                                                                      
     conv4_block3_1_conv (Conv2D)   (None, 4, 4, 256)    262400      ['conv4_block2_out[0][0]']       
                                                                                                      
     conv4_block3_1_bn (BatchNormal  (None, 4, 4, 256)   1024        ['conv4_block3_1_conv[0][0]']    
     ization)                                                                                         
                                                                                                      
     conv4_block3_1_relu (Activatio  (None, 4, 4, 256)   0           ['conv4_block3_1_bn[0][0]']      
     n)                                                                                               
                                                                                                      
     conv4_block3_2_conv (Conv2D)   (None, 4, 4, 256)    590080      ['conv4_block3_1_relu[0][0]']    
                                                                                                      
     conv4_block3_2_bn (BatchNormal  (None, 4, 4, 256)   1024        ['conv4_block3_2_conv[0][0]']    
     ization)                                                                                         
                                                                                                      
     conv4_block3_2_relu (Activatio  (None, 4, 4, 256)   0           ['conv4_block3_2_bn[0][0]']      
     n)                                                                                               
                                                                                                      
     conv4_block3_3_conv (Conv2D)   (None, 4, 4, 1024)   263168      ['conv4_block3_2_relu[0][0]']    
                                                                                                      
     conv4_block3_3_bn (BatchNormal  (None, 4, 4, 1024)  4096        ['conv4_block3_3_conv[0][0]']    
     ization)                                                                                         
                                                                                                      
     conv4_block3_add (Add)         (None, 4, 4, 1024)   0           ['conv4_block2_out[0][0]',       
                                                                      'conv4_block3_3_bn[0][0]']      
                                                                                                      
     conv4_block3_out (Activation)  (None, 4, 4, 1024)   0           ['conv4_block3_add[0][0]']       
                                                                                                      
     conv4_block4_1_conv (Conv2D)   (None, 4, 4, 256)    262400      ['conv4_block3_out[0][0]']       
                                                                                                      
     conv4_block4_1_bn (BatchNormal  (None, 4, 4, 256)   1024        ['conv4_block4_1_conv[0][0]']    
     ization)                                                                                         
                                                                                                      
     conv4_block4_1_relu (Activatio  (None, 4, 4, 256)   0           ['conv4_block4_1_bn[0][0]']      
     n)                                                                                               
                                                                                                      
     conv4_block4_2_conv (Conv2D)   (None, 4, 4, 256)    590080      ['conv4_block4_1_relu[0][0]']    
                                                                                                      
     conv4_block4_2_bn (BatchNormal  (None, 4, 4, 256)   1024        ['conv4_block4_2_conv[0][0]']    
     ization)                                                                                         
                                                                                                      
     conv4_block4_2_relu (Activatio  (None, 4, 4, 256)   0           ['conv4_block4_2_bn[0][0]']      
     n)                                                                                               
                                                                                                      
     conv4_block4_3_conv (Conv2D)   (None, 4, 4, 1024)   263168      ['conv4_block4_2_relu[0][0]']    
                                                                                                      
     conv4_block4_3_bn (BatchNormal  (None, 4, 4, 1024)  4096        ['conv4_block4_3_conv[0][0]']    
     ization)                                                                                         
                                                                                                      
     conv4_block4_add (Add)         (None, 4, 4, 1024)   0           ['conv4_block3_out[0][0]',       
                                                                      'conv4_block4_3_bn[0][0]']      
                                                                                                      
     conv4_block4_out (Activation)  (None, 4, 4, 1024)   0           ['conv4_block4_add[0][0]']       
                                                                                                      
     conv4_block5_1_conv (Conv2D)   (None, 4, 4, 256)    262400      ['conv4_block4_out[0][0]']       
                                                                                                      
     conv4_block5_1_bn (BatchNormal  (None, 4, 4, 256)   1024        ['conv4_block5_1_conv[0][0]']    
     ization)                                                                                         
                                                                                                      
     conv4_block5_1_relu (Activatio  (None, 4, 4, 256)   0           ['conv4_block5_1_bn[0][0]']      
     n)                                                                                               
                                                                                                      
     conv4_block5_2_conv (Conv2D)   (None, 4, 4, 256)    590080      ['conv4_block5_1_relu[0][0]']    
                                                                                                      
     conv4_block5_2_bn (BatchNormal  (None, 4, 4, 256)   1024        ['conv4_block5_2_conv[0][0]']    
     ization)                                                                                         
                                                                                                      
     conv4_block5_2_relu (Activatio  (None, 4, 4, 256)   0           ['conv4_block5_2_bn[0][0]']      
     n)                                                                                               
                                                                                                      
     conv4_block5_3_conv (Conv2D)   (None, 4, 4, 1024)   263168      ['conv4_block5_2_relu[0][0]']    
                                                                                                      
     conv4_block5_3_bn (BatchNormal  (None, 4, 4, 1024)  4096        ['conv4_block5_3_conv[0][0]']    
     ization)                                                                                         
                                                                                                      
     conv4_block5_add (Add)         (None, 4, 4, 1024)   0           ['conv4_block4_out[0][0]',       
                                                                      'conv4_block5_3_bn[0][0]']      
                                                                                                      
     conv4_block5_out (Activation)  (None, 4, 4, 1024)   0           ['conv4_block5_add[0][0]']       
                                                                                                      
     conv4_block6_1_conv (Conv2D)   (None, 4, 4, 256)    262400      ['conv4_block5_out[0][0]']       
                                                                                                      
     conv4_block6_1_bn (BatchNormal  (None, 4, 4, 256)   1024        ['conv4_block6_1_conv[0][0]']    
     ization)                                                                                         
                                                                                                      
     conv4_block6_1_relu (Activatio  (None, 4, 4, 256)   0           ['conv4_block6_1_bn[0][0]']      
     n)                                                                                               
                                                                                                      
     conv4_block6_2_conv (Conv2D)   (None, 4, 4, 256)    590080      ['conv4_block6_1_relu[0][0]']    
                                                                                                      
     conv4_block6_2_bn (BatchNormal  (None, 4, 4, 256)   1024        ['conv4_block6_2_conv[0][0]']    
     ization)                                                                                         
                                                                                                      
     conv4_block6_2_relu (Activatio  (None, 4, 4, 256)   0           ['conv4_block6_2_bn[0][0]']      
     n)                                                                                               
                                                                                                      
     conv4_block6_3_conv (Conv2D)   (None, 4, 4, 1024)   263168      ['conv4_block6_2_relu[0][0]']    
                                                                                                      
     conv4_block6_3_bn (BatchNormal  (None, 4, 4, 1024)  4096        ['conv4_block6_3_conv[0][0]']    
     ization)                                                                                         
                                                                                                      
     conv4_block6_add (Add)         (None, 4, 4, 1024)   0           ['conv4_block5_out[0][0]',       
                                                                      'conv4_block6_3_bn[0][0]']      
                                                                                                      
     conv4_block6_out (Activation)  (None, 4, 4, 1024)   0           ['conv4_block6_add[0][0]']       
                                                                                                      
     conv4_block7_1_conv (Conv2D)   (None, 4, 4, 256)    262400      ['conv4_block6_out[0][0]']       
                                                                                                      
     conv4_block7_1_bn (BatchNormal  (None, 4, 4, 256)   1024        ['conv4_block7_1_conv[0][0]']    
     ization)                                                                                         
                                                                                                      
     conv4_block7_1_relu (Activatio  (None, 4, 4, 256)   0           ['conv4_block7_1_bn[0][0]']      
     n)                                                                                               
                                                                                                      
     conv4_block7_2_conv (Conv2D)   (None, 4, 4, 256)    590080      ['conv4_block7_1_relu[0][0]']    
                                                                                                      
     conv4_block7_2_bn (BatchNormal  (None, 4, 4, 256)   1024        ['conv4_block7_2_conv[0][0]']    
     ization)                                                                                         
                                                                                                      
     conv4_block7_2_relu (Activatio  (None, 4, 4, 256)   0           ['conv4_block7_2_bn[0][0]']      
     n)                                                                                               
                                                                                                      
     conv4_block7_3_conv (Conv2D)   (None, 4, 4, 1024)   263168      ['conv4_block7_2_relu[0][0]']    
                                                                                                      
     conv4_block7_3_bn (BatchNormal  (None, 4, 4, 1024)  4096        ['conv4_block7_3_conv[0][0]']    
     ization)                                                                                         
                                                                                                      
     conv4_block7_add (Add)         (None, 4, 4, 1024)   0           ['conv4_block6_out[0][0]',       
                                                                      'conv4_block7_3_bn[0][0]']      
                                                                                                      
     conv4_block7_out (Activation)  (None, 4, 4, 1024)   0           ['conv4_block7_add[0][0]']       
                                                                                                      
     conv4_block8_1_conv (Conv2D)   (None, 4, 4, 256)    262400      ['conv4_block7_out[0][0]']       
                                                                                                      
     conv4_block8_1_bn (BatchNormal  (None, 4, 4, 256)   1024        ['conv4_block8_1_conv[0][0]']    
     ization)                                                                                         
                                                                                                      
     conv4_block8_1_relu (Activatio  (None, 4, 4, 256)   0           ['conv4_block8_1_bn[0][0]']      
     n)                                                                                               
                                                                                                      
     conv4_block8_2_conv (Conv2D)   (None, 4, 4, 256)    590080      ['conv4_block8_1_relu[0][0]']    
                                                                                                      
     conv4_block8_2_bn (BatchNormal  (None, 4, 4, 256)   1024        ['conv4_block8_2_conv[0][0]']    
     ization)                                                                                         
                                                                                                      
     conv4_block8_2_relu (Activatio  (None, 4, 4, 256)   0           ['conv4_block8_2_bn[0][0]']      
     n)                                                                                               
                                                                                                      
     conv4_block8_3_conv (Conv2D)   (None, 4, 4, 1024)   263168      ['conv4_block8_2_relu[0][0]']    
                                                                                                      
     conv4_block8_3_bn (BatchNormal  (None, 4, 4, 1024)  4096        ['conv4_block8_3_conv[0][0]']    
     ization)                                                                                         
                                                                                                      
     conv4_block8_add (Add)         (None, 4, 4, 1024)   0           ['conv4_block7_out[0][0]',       
                                                                      'conv4_block8_3_bn[0][0]']      
                                                                                                      
     conv4_block8_out (Activation)  (None, 4, 4, 1024)   0           ['conv4_block8_add[0][0]']       
                                                                                                      
     conv4_block9_1_conv (Conv2D)   (None, 4, 4, 256)    262400      ['conv4_block8_out[0][0]']       
                                                                                                      
     conv4_block9_1_bn (BatchNormal  (None, 4, 4, 256)   1024        ['conv4_block9_1_conv[0][0]']    
     ization)                                                                                         
                                                                                                      
     conv4_block9_1_relu (Activatio  (None, 4, 4, 256)   0           ['conv4_block9_1_bn[0][0]']      
     n)                                                                                               
                                                                                                      
     conv4_block9_2_conv (Conv2D)   (None, 4, 4, 256)    590080      ['conv4_block9_1_relu[0][0]']    
                                                                                                      
     conv4_block9_2_bn (BatchNormal  (None, 4, 4, 256)   1024        ['conv4_block9_2_conv[0][0]']    
     ization)                                                                                         
                                                                                                      
     conv4_block9_2_relu (Activatio  (None, 4, 4, 256)   0           ['conv4_block9_2_bn[0][0]']      
     n)                                                                                               
                                                                                                      
     conv4_block9_3_conv (Conv2D)   (None, 4, 4, 1024)   263168      ['conv4_block9_2_relu[0][0]']    
                                                                                                      
     conv4_block9_3_bn (BatchNormal  (None, 4, 4, 1024)  4096        ['conv4_block9_3_conv[0][0]']    
     ization)                                                                                         
                                                                                                      
     conv4_block9_add (Add)         (None, 4, 4, 1024)   0           ['conv4_block8_out[0][0]',       
                                                                      'conv4_block9_3_bn[0][0]']      
                                                                                                      
     conv4_block9_out (Activation)  (None, 4, 4, 1024)   0           ['conv4_block9_add[0][0]']       
                                                                                                      
     conv4_block10_1_conv (Conv2D)  (None, 4, 4, 256)    262400      ['conv4_block9_out[0][0]']       
                                                                                                      
     conv4_block10_1_bn (BatchNorma  (None, 4, 4, 256)   1024        ['conv4_block10_1_conv[0][0]']   
     lization)                                                                                        
                                                                                                      
     conv4_block10_1_relu (Activati  (None, 4, 4, 256)   0           ['conv4_block10_1_bn[0][0]']     
     on)                                                                                              
                                                                                                      
     conv4_block10_2_conv (Conv2D)  (None, 4, 4, 256)    590080      ['conv4_block10_1_relu[0][0]']   
                                                                                                      
     conv4_block10_2_bn (BatchNorma  (None, 4, 4, 256)   1024        ['conv4_block10_2_conv[0][0]']   
     lization)                                                                                        
                                                                                                      
     conv4_block10_2_relu (Activati  (None, 4, 4, 256)   0           ['conv4_block10_2_bn[0][0]']     
     on)                                                                                              
                                                                                                      
     conv4_block10_3_conv (Conv2D)  (None, 4, 4, 1024)   263168      ['conv4_block10_2_relu[0][0]']   
                                                                                                      
     conv4_block10_3_bn (BatchNorma  (None, 4, 4, 1024)  4096        ['conv4_block10_3_conv[0][0]']   
     lization)                                                                                        
                                                                                                      
     conv4_block10_add (Add)        (None, 4, 4, 1024)   0           ['conv4_block9_out[0][0]',       
                                                                      'conv4_block10_3_bn[0][0]']     
                                                                                                      
     conv4_block10_out (Activation)  (None, 4, 4, 1024)  0           ['conv4_block10_add[0][0]']      
                                                                                                      
     conv4_block11_1_conv (Conv2D)  (None, 4, 4, 256)    262400      ['conv4_block10_out[0][0]']      
                                                                                                      
     conv4_block11_1_bn (BatchNorma  (None, 4, 4, 256)   1024        ['conv4_block11_1_conv[0][0]']   
     lization)                                                                                        
                                                                                                      
     conv4_block11_1_relu (Activati  (None, 4, 4, 256)   0           ['conv4_block11_1_bn[0][0]']     
     on)                                                                                              
                                                                                                      
     conv4_block11_2_conv (Conv2D)  (None, 4, 4, 256)    590080      ['conv4_block11_1_relu[0][0]']   
                                                                                                      
     conv4_block11_2_bn (BatchNorma  (None, 4, 4, 256)   1024        ['conv4_block11_2_conv[0][0]']   
     lization)                                                                                        
                                                                                                      
     conv4_block11_2_relu (Activati  (None, 4, 4, 256)   0           ['conv4_block11_2_bn[0][0]']     
     on)                                                                                              
                                                                                                      
     conv4_block11_3_conv (Conv2D)  (None, 4, 4, 1024)   263168      ['conv4_block11_2_relu[0][0]']   
                                                                                                      
     conv4_block11_3_bn (BatchNorma  (None, 4, 4, 1024)  4096        ['conv4_block11_3_conv[0][0]']   
     lization)                                                                                        
                                                                                                      
     conv4_block11_add (Add)        (None, 4, 4, 1024)   0           ['conv4_block10_out[0][0]',      
                                                                      'conv4_block11_3_bn[0][0]']     
                                                                                                      
     conv4_block11_out (Activation)  (None, 4, 4, 1024)  0           ['conv4_block11_add[0][0]']      
                                                                                                      
     conv4_block12_1_conv (Conv2D)  (None, 4, 4, 256)    262400      ['conv4_block11_out[0][0]']      
                                                                                                      
     conv4_block12_1_bn (BatchNorma  (None, 4, 4, 256)   1024        ['conv4_block12_1_conv[0][0]']   
     lization)                                                                                        
                                                                                                      
     conv4_block12_1_relu (Activati  (None, 4, 4, 256)   0           ['conv4_block12_1_bn[0][0]']     
     on)                                                                                              
                                                                                                      
     conv4_block12_2_conv (Conv2D)  (None, 4, 4, 256)    590080      ['conv4_block12_1_relu[0][0]']   
                                                                                                      
     conv4_block12_2_bn (BatchNorma  (None, 4, 4, 256)   1024        ['conv4_block12_2_conv[0][0]']   
     lization)                                                                                        
                                                                                                      
     conv4_block12_2_relu (Activati  (None, 4, 4, 256)   0           ['conv4_block12_2_bn[0][0]']     
     on)                                                                                              
                                                                                                      
     conv4_block12_3_conv (Conv2D)  (None, 4, 4, 1024)   263168      ['conv4_block12_2_relu[0][0]']   
                                                                                                      
     conv4_block12_3_bn (BatchNorma  (None, 4, 4, 1024)  4096        ['conv4_block12_3_conv[0][0]']   
     lization)                                                                                        
                                                                                                      
     conv4_block12_add (Add)        (None, 4, 4, 1024)   0           ['conv4_block11_out[0][0]',      
                                                                      'conv4_block12_3_bn[0][0]']     
                                                                                                      
     conv4_block12_out (Activation)  (None, 4, 4, 1024)  0           ['conv4_block12_add[0][0]']      
                                                                                                      
     conv4_block13_1_conv (Conv2D)  (None, 4, 4, 256)    262400      ['conv4_block12_out[0][0]']      
                                                                                                      
     conv4_block13_1_bn (BatchNorma  (None, 4, 4, 256)   1024        ['conv4_block13_1_conv[0][0]']   
     lization)                                                                                        
                                                                                                      
     conv4_block13_1_relu (Activati  (None, 4, 4, 256)   0           ['conv4_block13_1_bn[0][0]']     
     on)                                                                                              
                                                                                                      
     conv4_block13_2_conv (Conv2D)  (None, 4, 4, 256)    590080      ['conv4_block13_1_relu[0][0]']   
                                                                                                      
     conv4_block13_2_bn (BatchNorma  (None, 4, 4, 256)   1024        ['conv4_block13_2_conv[0][0]']   
     lization)                                                                                        
                                                                                                      
     conv4_block13_2_relu (Activati  (None, 4, 4, 256)   0           ['conv4_block13_2_bn[0][0]']     
     on)                                                                                              
                                                                                                      
     conv4_block13_3_conv (Conv2D)  (None, 4, 4, 1024)   263168      ['conv4_block13_2_relu[0][0]']   
                                                                                                      
     conv4_block13_3_bn (BatchNorma  (None, 4, 4, 1024)  4096        ['conv4_block13_3_conv[0][0]']   
     lization)                                                                                        
                                                                                                      
     conv4_block13_add (Add)        (None, 4, 4, 1024)   0           ['conv4_block12_out[0][0]',      
                                                                      'conv4_block13_3_bn[0][0]']     
                                                                                                      
     conv4_block13_out (Activation)  (None, 4, 4, 1024)  0           ['conv4_block13_add[0][0]']      
                                                                                                      
     conv4_block14_1_conv (Conv2D)  (None, 4, 4, 256)    262400      ['conv4_block13_out[0][0]']      
                                                                                                      
     conv4_block14_1_bn (BatchNorma  (None, 4, 4, 256)   1024        ['conv4_block14_1_conv[0][0]']   
     lization)                                                                                        
                                                                                                      
     conv4_block14_1_relu (Activati  (None, 4, 4, 256)   0           ['conv4_block14_1_bn[0][0]']     
     on)                                                                                              
                                                                                                      
     conv4_block14_2_conv (Conv2D)  (None, 4, 4, 256)    590080      ['conv4_block14_1_relu[0][0]']   
                                                                                                      
     conv4_block14_2_bn (BatchNorma  (None, 4, 4, 256)   1024        ['conv4_block14_2_conv[0][0]']   
     lization)                                                                                        
                                                                                                      
     conv4_block14_2_relu (Activati  (None, 4, 4, 256)   0           ['conv4_block14_2_bn[0][0]']     
     on)                                                                                              
                                                                                                      
     conv4_block14_3_conv (Conv2D)  (None, 4, 4, 1024)   263168      ['conv4_block14_2_relu[0][0]']   
                                                                                                      
     conv4_block14_3_bn (BatchNorma  (None, 4, 4, 1024)  4096        ['conv4_block14_3_conv[0][0]']   
     lization)                                                                                        
                                                                                                      
     conv4_block14_add (Add)        (None, 4, 4, 1024)   0           ['conv4_block13_out[0][0]',      
                                                                      'conv4_block14_3_bn[0][0]']     
                                                                                                      
     conv4_block14_out (Activation)  (None, 4, 4, 1024)  0           ['conv4_block14_add[0][0]']      
                                                                                                      
     conv4_block15_1_conv (Conv2D)  (None, 4, 4, 256)    262400      ['conv4_block14_out[0][0]']      
                                                                                                      
     conv4_block15_1_bn (BatchNorma  (None, 4, 4, 256)   1024        ['conv4_block15_1_conv[0][0]']   
     lization)                                                                                        
                                                                                                      
     conv4_block15_1_relu (Activati  (None, 4, 4, 256)   0           ['conv4_block15_1_bn[0][0]']     
     on)                                                                                              
                                                                                                      
     conv4_block15_2_conv (Conv2D)  (None, 4, 4, 256)    590080      ['conv4_block15_1_relu[0][0]']   
                                                                                                      
     conv4_block15_2_bn (BatchNorma  (None, 4, 4, 256)   1024        ['conv4_block15_2_conv[0][0]']   
     lization)                                                                                        
                                                                                                      
     conv4_block15_2_relu (Activati  (None, 4, 4, 256)   0           ['conv4_block15_2_bn[0][0]']     
     on)                                                                                              
                                                                                                      
     conv4_block15_3_conv (Conv2D)  (None, 4, 4, 1024)   263168      ['conv4_block15_2_relu[0][0]']   
                                                                                                      
     conv4_block15_3_bn (BatchNorma  (None, 4, 4, 1024)  4096        ['conv4_block15_3_conv[0][0]']   
     lization)                                                                                        
                                                                                                      
     conv4_block15_add (Add)        (None, 4, 4, 1024)   0           ['conv4_block14_out[0][0]',      
                                                                      'conv4_block15_3_bn[0][0]']     
                                                                                                      
     conv4_block15_out (Activation)  (None, 4, 4, 1024)  0           ['conv4_block15_add[0][0]']      
                                                                                                      
     conv4_block16_1_conv (Conv2D)  (None, 4, 4, 256)    262400      ['conv4_block15_out[0][0]']      
                                                                                                      
     conv4_block16_1_bn (BatchNorma  (None, 4, 4, 256)   1024        ['conv4_block16_1_conv[0][0]']   
     lization)                                                                                        
                                                                                                      
     conv4_block16_1_relu (Activati  (None, 4, 4, 256)   0           ['conv4_block16_1_bn[0][0]']     
     on)                                                                                              
                                                                                                      
     conv4_block16_2_conv (Conv2D)  (None, 4, 4, 256)    590080      ['conv4_block16_1_relu[0][0]']   
                                                                                                      
     conv4_block16_2_bn (BatchNorma  (None, 4, 4, 256)   1024        ['conv4_block16_2_conv[0][0]']   
     lization)                                                                                        
                                                                                                      
     conv4_block16_2_relu (Activati  (None, 4, 4, 256)   0           ['conv4_block16_2_bn[0][0]']     
     on)                                                                                              
                                                                                                      
     conv4_block16_3_conv (Conv2D)  (None, 4, 4, 1024)   263168      ['conv4_block16_2_relu[0][0]']   
                                                                                                      
     conv4_block16_3_bn (BatchNorma  (None, 4, 4, 1024)  4096        ['conv4_block16_3_conv[0][0]']   
     lization)                                                                                        
                                                                                                      
     conv4_block16_add (Add)        (None, 4, 4, 1024)   0           ['conv4_block15_out[0][0]',      
                                                                      'conv4_block16_3_bn[0][0]']     
                                                                                                      
     conv4_block16_out (Activation)  (None, 4, 4, 1024)  0           ['conv4_block16_add[0][0]']      
                                                                                                      
     conv4_block17_1_conv (Conv2D)  (None, 4, 4, 256)    262400      ['conv4_block16_out[0][0]']      
                                                                                                      
     conv4_block17_1_bn (BatchNorma  (None, 4, 4, 256)   1024        ['conv4_block17_1_conv[0][0]']   
     lization)                                                                                        
                                                                                                      
     conv4_block17_1_relu (Activati  (None, 4, 4, 256)   0           ['conv4_block17_1_bn[0][0]']     
     on)                                                                                              
                                                                                                      
     conv4_block17_2_conv (Conv2D)  (None, 4, 4, 256)    590080      ['conv4_block17_1_relu[0][0]']   
                                                                                                      
     conv4_block17_2_bn (BatchNorma  (None, 4, 4, 256)   1024        ['conv4_block17_2_conv[0][0]']   
     lization)                                                                                        
                                                                                                      
     conv4_block17_2_relu (Activati  (None, 4, 4, 256)   0           ['conv4_block17_2_bn[0][0]']     
     on)                                                                                              
                                                                                                      
     conv4_block17_3_conv (Conv2D)  (None, 4, 4, 1024)   263168      ['conv4_block17_2_relu[0][0]']   
                                                                                                      
     conv4_block17_3_bn (BatchNorma  (None, 4, 4, 1024)  4096        ['conv4_block17_3_conv[0][0]']   
     lization)                                                                                        
                                                                                                      
     conv4_block17_add (Add)        (None, 4, 4, 1024)   0           ['conv4_block16_out[0][0]',      
                                                                      'conv4_block17_3_bn[0][0]']     
                                                                                                      
     conv4_block17_out (Activation)  (None, 4, 4, 1024)  0           ['conv4_block17_add[0][0]']      
                                                                                                      
     conv4_block18_1_conv (Conv2D)  (None, 4, 4, 256)    262400      ['conv4_block17_out[0][0]']      
                                                                                                      
     conv4_block18_1_bn (BatchNorma  (None, 4, 4, 256)   1024        ['conv4_block18_1_conv[0][0]']   
     lization)                                                                                        
                                                                                                      
     conv4_block18_1_relu (Activati  (None, 4, 4, 256)   0           ['conv4_block18_1_bn[0][0]']     
     on)                                                                                              
                                                                                                      
     conv4_block18_2_conv (Conv2D)  (None, 4, 4, 256)    590080      ['conv4_block18_1_relu[0][0]']   
                                                                                                      
     conv4_block18_2_bn (BatchNorma  (None, 4, 4, 256)   1024        ['conv4_block18_2_conv[0][0]']   
     lization)                                                                                        
                                                                                                      
     conv4_block18_2_relu (Activati  (None, 4, 4, 256)   0           ['conv4_block18_2_bn[0][0]']     
     on)                                                                                              
                                                                                                      
     conv4_block18_3_conv (Conv2D)  (None, 4, 4, 1024)   263168      ['conv4_block18_2_relu[0][0]']   
                                                                                                      
     conv4_block18_3_bn (BatchNorma  (None, 4, 4, 1024)  4096        ['conv4_block18_3_conv[0][0]']   
     lization)                                                                                        
                                                                                                      
     conv4_block18_add (Add)        (None, 4, 4, 1024)   0           ['conv4_block17_out[0][0]',      
                                                                      'conv4_block18_3_bn[0][0]']     
                                                                                                      
     conv4_block18_out (Activation)  (None, 4, 4, 1024)  0           ['conv4_block18_add[0][0]']      
                                                                                                      
     conv4_block19_1_conv (Conv2D)  (None, 4, 4, 256)    262400      ['conv4_block18_out[0][0]']      
                                                                                                      
     conv4_block19_1_bn (BatchNorma  (None, 4, 4, 256)   1024        ['conv4_block19_1_conv[0][0]']   
     lization)                                                                                        
                                                                                                      
     conv4_block19_1_relu (Activati  (None, 4, 4, 256)   0           ['conv4_block19_1_bn[0][0]']     
     on)                                                                                              
                                                                                                      
     conv4_block19_2_conv (Conv2D)  (None, 4, 4, 256)    590080      ['conv4_block19_1_relu[0][0]']   
                                                                                                      
     conv4_block19_2_bn (BatchNorma  (None, 4, 4, 256)   1024        ['conv4_block19_2_conv[0][0]']   
     lization)                                                                                        
                                                                                                      
     conv4_block19_2_relu (Activati  (None, 4, 4, 256)   0           ['conv4_block19_2_bn[0][0]']     
     on)                                                                                              
                                                                                                      
     conv4_block19_3_conv (Conv2D)  (None, 4, 4, 1024)   263168      ['conv4_block19_2_relu[0][0]']   
                                                                                                      
     conv4_block19_3_bn (BatchNorma  (None, 4, 4, 1024)  4096        ['conv4_block19_3_conv[0][0]']   
     lization)                                                                                        
                                                                                                      
     conv4_block19_add (Add)        (None, 4, 4, 1024)   0           ['conv4_block18_out[0][0]',      
                                                                      'conv4_block19_3_bn[0][0]']     
                                                                                                      
     conv4_block19_out (Activation)  (None, 4, 4, 1024)  0           ['conv4_block19_add[0][0]']      
                                                                                                      
     conv4_block20_1_conv (Conv2D)  (None, 4, 4, 256)    262400      ['conv4_block19_out[0][0]']      
                                                                                                      
     conv4_block20_1_bn (BatchNorma  (None, 4, 4, 256)   1024        ['conv4_block20_1_conv[0][0]']   
     lization)                                                                                        
                                                                                                      
     conv4_block20_1_relu (Activati  (None, 4, 4, 256)   0           ['conv4_block20_1_bn[0][0]']     
     on)                                                                                              
                                                                                                      
     conv4_block20_2_conv (Conv2D)  (None, 4, 4, 256)    590080      ['conv4_block20_1_relu[0][0]']   
                                                                                                      
     conv4_block20_2_bn (BatchNorma  (None, 4, 4, 256)   1024        ['conv4_block20_2_conv[0][0]']   
     lization)                                                                                        
                                                                                                      
     conv4_block20_2_relu (Activati  (None, 4, 4, 256)   0           ['conv4_block20_2_bn[0][0]']     
     on)                                                                                              
                                                                                                      
     conv4_block20_3_conv (Conv2D)  (None, 4, 4, 1024)   263168      ['conv4_block20_2_relu[0][0]']   
                                                                                                      
     conv4_block20_3_bn (BatchNorma  (None, 4, 4, 1024)  4096        ['conv4_block20_3_conv[0][0]']   
     lization)                                                                                        
                                                                                                      
     conv4_block20_add (Add)        (None, 4, 4, 1024)   0           ['conv4_block19_out[0][0]',      
                                                                      'conv4_block20_3_bn[0][0]']     
                                                                                                      
     conv4_block20_out (Activation)  (None, 4, 4, 1024)  0           ['conv4_block20_add[0][0]']      
                                                                                                      
     conv4_block21_1_conv (Conv2D)  (None, 4, 4, 256)    262400      ['conv4_block20_out[0][0]']      
                                                                                                      
     conv4_block21_1_bn (BatchNorma  (None, 4, 4, 256)   1024        ['conv4_block21_1_conv[0][0]']   
     lization)                                                                                        
                                                                                                      
     conv4_block21_1_relu (Activati  (None, 4, 4, 256)   0           ['conv4_block21_1_bn[0][0]']     
     on)                                                                                              
                                                                                                      
     conv4_block21_2_conv (Conv2D)  (None, 4, 4, 256)    590080      ['conv4_block21_1_relu[0][0]']   
                                                                                                      
     conv4_block21_2_bn (BatchNorma  (None, 4, 4, 256)   1024        ['conv4_block21_2_conv[0][0]']   
     lization)                                                                                        
                                                                                                      
     conv4_block21_2_relu (Activati  (None, 4, 4, 256)   0           ['conv4_block21_2_bn[0][0]']     
     on)                                                                                              
                                                                                                      
     conv4_block21_3_conv (Conv2D)  (None, 4, 4, 1024)   263168      ['conv4_block21_2_relu[0][0]']   
                                                                                                      
     conv4_block21_3_bn (BatchNorma  (None, 4, 4, 1024)  4096        ['conv4_block21_3_conv[0][0]']   
     lization)                                                                                        
                                                                                                      
     conv4_block21_add (Add)        (None, 4, 4, 1024)   0           ['conv4_block20_out[0][0]',      
                                                                      'conv4_block21_3_bn[0][0]']     
                                                                                                      
     conv4_block21_out (Activation)  (None, 4, 4, 1024)  0           ['conv4_block21_add[0][0]']      
                                                                                                      
     conv4_block22_1_conv (Conv2D)  (None, 4, 4, 256)    262400      ['conv4_block21_out[0][0]']      
                                                                                                      
     conv4_block22_1_bn (BatchNorma  (None, 4, 4, 256)   1024        ['conv4_block22_1_conv[0][0]']   
     lization)                                                                                        
                                                                                                      
     conv4_block22_1_relu (Activati  (None, 4, 4, 256)   0           ['conv4_block22_1_bn[0][0]']     
     on)                                                                                              
                                                                                                      
     conv4_block22_2_conv (Conv2D)  (None, 4, 4, 256)    590080      ['conv4_block22_1_relu[0][0]']   
                                                                                                      
     conv4_block22_2_bn (BatchNorma  (None, 4, 4, 256)   1024        ['conv4_block22_2_conv[0][0]']   
     lization)                                                                                        
                                                                                                      
     conv4_block22_2_relu (Activati  (None, 4, 4, 256)   0           ['conv4_block22_2_bn[0][0]']     
     on)                                                                                              
                                                                                                      
     conv4_block22_3_conv (Conv2D)  (None, 4, 4, 1024)   263168      ['conv4_block22_2_relu[0][0]']   
                                                                                                      
     conv4_block22_3_bn (BatchNorma  (None, 4, 4, 1024)  4096        ['conv4_block22_3_conv[0][0]']   
     lization)                                                                                        
                                                                                                      
     conv4_block22_add (Add)        (None, 4, 4, 1024)   0           ['conv4_block21_out[0][0]',      
                                                                      'conv4_block22_3_bn[0][0]']     
                                                                                                      
     conv4_block22_out (Activation)  (None, 4, 4, 1024)  0           ['conv4_block22_add[0][0]']      
                                                                                                      
     conv4_block23_1_conv (Conv2D)  (None, 4, 4, 256)    262400      ['conv4_block22_out[0][0]']      
                                                                                                      
     conv4_block23_1_bn (BatchNorma  (None, 4, 4, 256)   1024        ['conv4_block23_1_conv[0][0]']   
     lization)                                                                                        
                                                                                                      
     conv4_block23_1_relu (Activati  (None, 4, 4, 256)   0           ['conv4_block23_1_bn[0][0]']     
     on)                                                                                              
                                                                                                      
     conv4_block23_2_conv (Conv2D)  (None, 4, 4, 256)    590080      ['conv4_block23_1_relu[0][0]']   
                                                                                                      
     conv4_block23_2_bn (BatchNorma  (None, 4, 4, 256)   1024        ['conv4_block23_2_conv[0][0]']   
     lization)                                                                                        
                                                                                                      
     conv4_block23_2_relu (Activati  (None, 4, 4, 256)   0           ['conv4_block23_2_bn[0][0]']     
     on)                                                                                              
                                                                                                      
     conv4_block23_3_conv (Conv2D)  (None, 4, 4, 1024)   263168      ['conv4_block23_2_relu[0][0]']   
                                                                                                      
     conv4_block23_3_bn (BatchNorma  (None, 4, 4, 1024)  4096        ['conv4_block23_3_conv[0][0]']   
     lization)                                                                                        
                                                                                                      
     conv4_block23_add (Add)        (None, 4, 4, 1024)   0           ['conv4_block22_out[0][0]',      
                                                                      'conv4_block23_3_bn[0][0]']     
                                                                                                      
     conv4_block23_out (Activation)  (None, 4, 4, 1024)  0           ['conv4_block23_add[0][0]']      
                                                                                                      
     conv5_block1_1_conv (Conv2D)   (None, 2, 2, 512)    524800      ['conv4_block23_out[0][0]']      
                                                                                                      
     conv5_block1_1_bn (BatchNormal  (None, 2, 2, 512)   2048        ['conv5_block1_1_conv[0][0]']    
     ization)                                                                                         
                                                                                                      
     conv5_block1_1_relu (Activatio  (None, 2, 2, 512)   0           ['conv5_block1_1_bn[0][0]']      
     n)                                                                                               
                                                                                                      
     conv5_block1_2_conv (Conv2D)   (None, 2, 2, 512)    2359808     ['conv5_block1_1_relu[0][0]']    
                                                                                                      
     conv5_block1_2_bn (BatchNormal  (None, 2, 2, 512)   2048        ['conv5_block1_2_conv[0][0]']    
     ization)                                                                                         
                                                                                                      
     conv5_block1_2_relu (Activatio  (None, 2, 2, 512)   0           ['conv5_block1_2_bn[0][0]']      
     n)                                                                                               
                                                                                                      
     conv5_block1_0_conv (Conv2D)   (None, 2, 2, 2048)   2099200     ['conv4_block23_out[0][0]']      
                                                                                                      
     conv5_block1_3_conv (Conv2D)   (None, 2, 2, 2048)   1050624     ['conv5_block1_2_relu[0][0]']    
                                                                                                      
     conv5_block1_0_bn (BatchNormal  (None, 2, 2, 2048)  8192        ['conv5_block1_0_conv[0][0]']    
     ization)                                                                                         
                                                                                                      
     conv5_block1_3_bn (BatchNormal  (None, 2, 2, 2048)  8192        ['conv5_block1_3_conv[0][0]']    
     ization)                                                                                         
                                                                                                      
     conv5_block1_add (Add)         (None, 2, 2, 2048)   0           ['conv5_block1_0_bn[0][0]',      
                                                                      'conv5_block1_3_bn[0][0]']      
                                                                                                      
     conv5_block1_out (Activation)  (None, 2, 2, 2048)   0           ['conv5_block1_add[0][0]']       
                                                                                                      
     conv5_block2_1_conv (Conv2D)   (None, 2, 2, 512)    1049088     ['conv5_block1_out[0][0]']       
                                                                                                      
     conv5_block2_1_bn (BatchNormal  (None, 2, 2, 512)   2048        ['conv5_block2_1_conv[0][0]']    
     ization)                                                                                         
                                                                                                      
     conv5_block2_1_relu (Activatio  (None, 2, 2, 512)   0           ['conv5_block2_1_bn[0][0]']      
     n)                                                                                               
                                                                                                      
     conv5_block2_2_conv (Conv2D)   (None, 2, 2, 512)    2359808     ['conv5_block2_1_relu[0][0]']    
                                                                                                      
     conv5_block2_2_bn (BatchNormal  (None, 2, 2, 512)   2048        ['conv5_block2_2_conv[0][0]']    
     ization)                                                                                         
                                                                                                      
     conv5_block2_2_relu (Activatio  (None, 2, 2, 512)   0           ['conv5_block2_2_bn[0][0]']      
     n)                                                                                               
                                                                                                      
     conv5_block2_3_conv (Conv2D)   (None, 2, 2, 2048)   1050624     ['conv5_block2_2_relu[0][0]']    
                                                                                                      
     conv5_block2_3_bn (BatchNormal  (None, 2, 2, 2048)  8192        ['conv5_block2_3_conv[0][0]']    
     ization)                                                                                         
                                                                                                      
     conv5_block2_add (Add)         (None, 2, 2, 2048)   0           ['conv5_block1_out[0][0]',       
                                                                      'conv5_block2_3_bn[0][0]']      
                                                                                                      
     conv5_block2_out (Activation)  (None, 2, 2, 2048)   0           ['conv5_block2_add[0][0]']       
                                                                                                      
     conv5_block3_1_conv (Conv2D)   (None, 2, 2, 512)    1049088     ['conv5_block2_out[0][0]']       
                                                                                                      
     conv5_block3_1_bn (BatchNormal  (None, 2, 2, 512)   2048        ['conv5_block3_1_conv[0][0]']    
     ization)                                                                                         
                                                                                                      
     conv5_block3_1_relu (Activatio  (None, 2, 2, 512)   0           ['conv5_block3_1_bn[0][0]']      
     n)                                                                                               
                                                                                                      
     conv5_block3_2_conv (Conv2D)   (None, 2, 2, 512)    2359808     ['conv5_block3_1_relu[0][0]']    
                                                                                                      
     conv5_block3_2_bn (BatchNormal  (None, 2, 2, 512)   2048        ['conv5_block3_2_conv[0][0]']    
     ization)                                                                                         
                                                                                                      
     conv5_block3_2_relu (Activatio  (None, 2, 2, 512)   0           ['conv5_block3_2_bn[0][0]']      
     n)                                                                                               
                                                                                                      
     conv5_block3_3_conv (Conv2D)   (None, 2, 2, 2048)   1050624     ['conv5_block3_2_relu[0][0]']    
                                                                                                      
     conv5_block3_3_bn (BatchNormal  (None, 2, 2, 2048)  8192        ['conv5_block3_3_conv[0][0]']    
     ization)                                                                                         
                                                                                                      
     conv5_block3_add (Add)         (None, 2, 2, 2048)   0           ['conv5_block2_out[0][0]',       
                                                                      'conv5_block3_3_bn[0][0]']      
                                                                                                      
     conv5_block3_out (Activation)  (None, 2, 2, 2048)   0           ['conv5_block3_add[0][0]']       
                                                                                                      
     global_average_pooling2d_1 (Gl  (None, 2048)        0           ['conv5_block3_out[0][0]']       
     obalAveragePooling2D)                                                                            
                                                                                                      
     dense_2 (Dense)                (None, 1024)         2098176     ['global_average_pooling2d_1[0][0
                                                                     ]']                              
                                                                                                      
     dropout_1 (Dropout)            (None, 1024)         0           ['dense_2[0][0]']                
                                                                                                      
     dense_3 (Dense)                (None, 200)          205000      ['dropout_1[0][0]']              
                                                                                                      
    ==================================================================================================
    Total params: 44,961,352
    Trainable params: 44,856,008
    Non-trainable params: 105,344
    __________________________________________________________________________________________________
…
